web-app/chatdata.pth (torch, 5906 bytes, 6 tensors)

l1.weight f4 [8, 58]
00000000: 9d0f b93e 5a37 a63e 3a60 01bf e6ea 4a3f
00000010: 14c5 503f 5340 bc3c 1b54 31bf 3802 7f3e
00000020: 9c1b 8dbd d712 53be b3b1 013f 3f75 ad3e
00000030: 82cc 79be d65e 31bf eeee 2dbf 2d65 8dbe
00000040: 64a0 913d e058 783d ab1b 2f3f c473 083f
00000050: b28d bd3e cd66 92be 145f 913e c960 c13e
00000060: 6dab e03e c344 723d 0286 f7bd eb86 07bf
00000070: d60a af3e 67ce 023d 2a5b 31bf 18b2 97be
00000080: f0ab 5a3d b30c 09be a25a b4be 6d89 b7be
00000090: 3acf 85be 2196 1ebf 3d26 aabe d1ce 56be
000000a0: 0ad7 013f e16e d43e 4e48 9cbe 36d7 9abe
000000b0: d7c6 1c3e 0345 be3e 3dbb 713f 40af 28be
000000c0: 44ce 16bf 0f53 623e 1bed 073f c6e1 24be
000000d0: 71a3 c03e d38b 1a3f 3542 153f a654 eb3e
000000e0: cce4 a53e 7a14 71be f673 d23e 04b7 1c3d
000000f0: 686f c5be 9b77 d1be 96b2 b9be 5a55 bfbd
00000100: bfb8 443f 3673 7d3d d082 0d3f 249e 9b3c
00000110: 8194 003e 9693 d03e 2638 90be 9854 f5be
00000120: 1257 f5be 311a d9be c804 08be 882f 0c3f
00000130: 2f33 993e 013a f8be 55ca e83e 0569 1e3f
00000140: a73e 803e 6efa 203e d53a 873e ed95 1dbc
00000150: 1701 fc3e 3e6d c5be e2e5 883e 86fc 7ebe
00000160: 6555 f5be ae39 db3e c11f c7be a880 36be
00000170: fdce 0e3f 18d3 ed3e a88c 96be 94be 2dbf
00000180: f721 a7be 062c cd3e 92e5 283f 6658 a73e
00000190: e59d d83d bec8 e23e d189 583f 7978 b23e
000001a0: e943 f5be 04ef c7be d449 a93f 4678 113f
000001b0: 0b23 933e 3d02 4a3d aa0a 943e fe61 933e
000001c0: 0dfa b03e 3f04 673e 75f6 853e 0f43 c7be
000001d0: a490 ab3e 7ee0 19bd ca54 063f e55d f1be
000001e0: 655b f1be 8dca 4b3f 5998 483f 7d2b f4bd
000001f0: d8b9 a2be 5589 b33e 0a80 06bf 4d12 213f
00000200: 2809 813d 0777 493f a63e 3d3f 00c9 713e
00000210: d3a8 18bd 77c7 923c e424 ce3e acaf 843e
00000220: 9e55 3bbe e0ef e5be 93d4 223e bf84 a2be
00000230: e4bf b5be 8a94 093e 2bbb 35be e916 f33e
00000240: 6326 073e 91d7 cb3d fde1 2f3f 6a26 db3e
00000250: 0a96 ba3d 976a a13d 64fd a03e 7795 c23e
00000260: 5b17 393e a6e9 f23e d71f cb3d 638e 9c3e
00000270: a93b 083f 7310 88be 0485 a53e aa6c ba3e
00000280: fadb 193f d436 703e 715d f1be 1cbf 7b3e
00000290: 50d7 16bf 199d a23e 376b 01bf 343d b5bd
000002a0: f7db 253e 0923 ccbe 5059 00bf 3da3 9bbe
000002b0: 64ee 523d b682 823e adec c0bd 301e 1b3e
000002c0: b54f 8dbd f075 eb3e 92bd 603e 2e54 98be
000002d0: a81f 383f 561c 2c3e 0afd 723e 2032 5e3d
000002e0: abbb 323f beab c43d 8392 d03e e1f7 b9be
000002f0: deaa bbbe 5f13 933e 1c9e 183f 7777 62be
00000300: d2c0 34bf 61a3 b2be 490e e03e ad96 8a3e
00000310: 9419 c7be 8833 333e 92ef 8e3e d264 2c3f
00000320: 3f8e fd3e 234e dbbd 2a84 83be 979a b13c
00000330: 81af bbbe 50c3 9a3c af03 39bc ad95 dd3e
00000340: 073f 7b3e e444 0a3f 7885 b93e d269 cd3e
00000350: bdef 0d3f eefb ef3e c91e e5be e158 8f3e
00000360: 6368 3fbe c988 e03e 839e a0be f1f8 b2be
00000370: 68cf 353e eca7 8c3e 4c94 7e3f 63b0 8bbd
00000380: 67b0 3b3e a8ed 863e 0345 37be d371 433f
00000390: 96e4 573e 07ac 1d3e e35c e03d 6bd4 df3e
000003a0: b2be 483e 8737 023d f674 0b3f ce84 313f
000003b0: 902b 013f 7156 393f ae85 27bf c48d bbbc
000003c0: d6a6 8fbe c199 15be 0078 9fbd 5fad fc3e
000003d0: 618d f43e bc82 4b3f 7488 303f d98c 1f3f
000003e0: 81ec ce3e c498 c3bd 1db9 493e d620 d43e
000003f0: c8d7 c3be a698 a4be 315e 513e 4061 67be
0.36144724 0.32464105 -0.50537455 0.79264677 0.8155072 0.02297989 -0.6926896 0.2490319
-0.06890032 -0.20612656 0.5066177 0.33878514 -0.2439442 -0.69285333 -0.679427 -0.27616253
0.0711067 0.060631633 0.6840159 0.53301644 0.37022167 -0.28594056 0.2839285 0.37769154
0.43880787 0.059147608 -0.12086107 -0.52940243 0.34187955 0.031935122 -0.6927973 -0.29628062
0.05338663 -0.1338375 -0.35225397 -0.35847035 -0.26134664 -0.6194783 -0.33232298 -0.20977332
0.5071875 0.41490844 -0.30523914 -0.30242318 0.15310226 0.37162027 0.9442633 -0.16473103
-0.58908486 0.22101997 0.5309617 -0.1610175 0.37624696 0.60369605 0.5830415 0.4596302
0.3240112 -0.23542967 0.41104096 0.038260475 -0.3856156 -0.40911564 -0.36269063 -0.093424514
0.768444 0.06187745 0.5527773 0.018996306 0.1255665 0.407376 -0.28167838 -0.47916102
-0.47917992 -0.42402795 -0.13283074 0.54760027 0.29921862 -0.48481753 0.45466867 0.61879
0.250478 0.15720531 0.26412073 -0.009618265 0.4921958 -0.38559908 0.26737887 -0.24901018
-0.47916713 0.42817444 -0.38891414 -0.17822516 0.5578459 0.46450114 -0.29404187 -0.67868924
-0.326431 0.4007265 0.65975296 0.3268463 0.10576991 0.4429378 0.8458529 0.34857538
-0.47903374 -0.39049542 1.3225656 0.5682415 0.28737673 0.04931854 0.28914386 0.287857
0.34565774 0.22560214 0.26164594 -0.3891835 0.3350879 -0.037567608 0.5247313 -0.47141948
-0.4714004 0.7960594 0.78357464 -0.11922357 -0.31782413 0.35065714 -0.5253912 0.6291855
0.063005745 0.78697246 0.7392372 0.23611832 -0.03727038 0.017917378 0.4026252 0.25915277
-0.18294379 -0.44909573 0.15901403 -0.31741902 -0.35497963 0.1343557 -0.1774718 0.47478417
0.13198237 0.099532254 0.68704206 0.42802745 0.09110649 0.078816585 0.31443322 0.38004658
0.18075316 0.47443885 0.09918182 0.30577382 0.53216034 -0.2657505 0.32328045 0.3641103
0.6010128 0.23458415 -0.47141603 0.24584621 -0.5892229 0.3176048 -0.5055422 -0.08849564
0.16197191 -0.3987048 -0.5013628 -0.30397978 0.05149688 0.2549035 -0.09420142 0.15148234
-0.068999685 0.45988417 0.21947315 -0.29751724 0.71923304 0.16807684 0.23729339 0.05424702
0.6981761 0.0960307 0.4073678 -0.3632193 -0.366538 0.28725716 0.59616256 -0.22115885
-0.7060672 -0.34890273 0.437609 0.27068081 -0.38886702 0.17500126 0.27917153 0.6734134
0.49522588 -0.10708263 -0.2568677 0.02168016 -0.36657336 0.01889196 -0.011292382 0.43278256
0.24535762 0.5401137 0.3623464 0.40119797 0.55443937 0.46871895 -0.4475005 0.27997497
-0.18692164 0.4385436 -0.31370935 -0.34955552 0.177549 0.27471864 0.99445033 -0.068207525
0.18329011 0.26353192 -0.1789742 0.76345557 0.21083292 0.15397654 0.10955217 0.4371675
0.19603994 0.031791236 0.54475343 0.6934327 0.50457096 0.72397524 -0.65438354 -0.022894748
-0.28056973 -0.14609434 -0.0778656 0.49351022 0.47764114 0.7949636 0.6895821 0.6232429
0.40414813 -0.09550622 0.19699521 0.41431302 -0.38250566 -0.32147712 0.20446087 -0.22595692

l1.bias f4 [8]
00000000: d852 313f 3644 f53e eb59 f13e 6baf bb3e
00000010: c66f 3a3f fce2 d33e 02f1 533f 3a29 c23e
0.69267035 0.47903603 0.47138914 0.3665727 0.728268 0.41384113 0.82789624 0.37922078

l2.weight f4 [8, 8]
00000000: 601a 803f 62b6 b1bd 4217 bf3d ebcd cc3e
00000010: 630d 53be 9812 8f3f 5d96 113f 2c1e af3f
00000020: b49e 3cbd e903 a53f d393 133f e345 8d3f
00000030: 57a3 2abf e090 9b3f 41a8 c5bd 1977 303f
00000040: b439 553c 4424 a33f 0f2b 21bf 71a8 603f
00000050: 017a 87bf 259c 933e f9c0 093f 0f4a 853f
00000060: 1e59 9cbe 4331 1bbe 1158 c93f 7ee4 80be
00000070: 691c 953f 6671 fc3e b40c db3e 07d0 16bf
00000080: ff95 983f a8f5 903e 9572 80bf 9fc9 9d3f
00000090: 11a2 373f 624c 90bd 68ea 06be 9cce e5be
000000a0: 6e86 543f 57e7 fabe 8951 d8be 6fb9 ec3d
000000b0: 44f2 913e 3605 5dbf 79dd 8f3f 79b0 e03e
000000c0: 348e 4e3f 30c4 16bf 8049 0c3f 3524 99bf
000000d0: bd33 7b3f cd13 52bf 2fb2 b13f 88fd 3ebf
000000e0: 902a ac3f 9ddb 003f b648 78be 02b1 5fbf
000000f0: 7662 243d 8265 fb3e 76ef 8f3f 4ed3 4bbe
1.0008049 -0.08677365 0.09330608 0.40000853 -0.20610575 1.1177549 0.5687006 1.3681083
-0.04604979 1.2891818 0.57647437 1.1036953 -0.66655487 1.2153587 -0.096512325 0.6893173
0.013014246 1.2745442 -0.6295633 0.8775702 -1.0584108 0.28830066 0.5381008 1.0413226
-0.3053674 -0.1515551 1.5730001 -0.25174326 1.1649295 0.49305266 0.4278313 -0.58911175
1.1920775 0.2831242 -1.0034968 1.2327155 0.7173167 -0.07045819 -0.13175356 -0.44884193
0.83017623 -0.49004623 -0.42249706 0.11558806 0.28505147 -0.86336076 1.1239463 0.43884638
0.80685735 -0.5889311 0.5479965 -1.1964175 0.9812582 -0.82061464 1.3882502 -0.7460561
1.3450489 0.50335103 -0.24246487 -0.8737947 0.040132962 0.49100882 1.1244953 -0.19904825

l2.bias f4 [8]
00000000: c1a2 f0be 55ea c83e f1dc bd3e 629e ce3e
00000010: 8e61 a93e 9ee7 153f 20cb 163f ae24 fc3d
-0.4699917 0.3924128 0.37082627 0.40355211 0.3308224 0.58556545 0.58903694 0.123116836

l3.weight f4 [7, 8]
00000000: 71d9 313f ca0e 173f a009 d73e c38e 89bc
00000010: 5153 bcbf 56e2 b3bf b261 99bf ba57 1abf
00000020: 3858 5f3e ebc1 9c3d 1f22 2bbf ac31 083f
00000030: 2ff2 2bbf 9335 4fbf d2d4 11be 8931 6f3f
00000040: 5800 a3bf 2dc2 5ebf 2fe7 6bbf f022 843f
00000050: de38 d5bf d06b 233f 9544 3b3f 7fd2 6fbd
00000060: b2c7 783e c101 2f3d 8522 81bf 0a46 343f
00000070: cfa7 493f 0497 51bf f877 93bf 9cd7 b0bf
00000080: a719 04bf 01cc 70bf 2b38 1bbf d6c4 43bf
00000090: 65b7 373f 1574 543f a40a 293f 9036 683e
000000a0: 0b6a 71bf d689 ef3e 9396 3c3f 2b8d 9fbf
000000b0: 4d50 5e3f ef11 7abf 4ad4 28bf 33ba a2bf
000000c0: 408f dc3e 0cf1 a5bd f588 a13e 5f0d b0bf
000000d0: fc34 ac3d 1856 103f 6b3a 84bf 618b ef3e
0.69472414 0.5900694 0.4199953 -0.016791707 -1.4712926 -1.4053447 -1.1982939 -0.6029011
0.21810997 0.076541744 -0.6684894 0.53200793 -0.6716642 -0.8094112 -0.14241341 0.9343496
-1.273448 -0.8701504 -0.92149633 1.0323162 -1.665798 0.63836384 0.7315152 -0.058550354
0.24294928 0.042726282 -1.008866 0.7041937 0.7877168 -0.81871057 -1.1520987 -1.3815799
-0.5160164 -0.94061285 -0.6063258 -0.7647222 0.7176421 0.8298963 0.6603186 0.22677064
-0.94302434 0.46784848 0.7366726 -1.2464956 0.8684128 -0.97683614 -0.6594893 -1.2713073
0.4307804 -0.08102617 0.31549802 -1.375408 0.084085435 0.5638137 -1.0330328 0.46786025

l3.bias f4 [7]
00000000: f40d 73be 0b92 753c 0e54 423e 4de0 2f3e
00000010: 3d87 92bd a1ef a13e 3613 cebd
-0.23735791 0.014988433 0.18977377 0.17175408 -0.07154701 0.31628135 -0.10062258
